titanic_logistic/model.pth (torch, 15080 bytes, 7 tensors)

net.0.weight f4 [64, 6]
000000 9e 6e 14 3c b8 58 96 3e d3 92 a2 3e d0 a4 55 bd
       0.009059576 0.29364562 0.31752643 -0.05215913
000010 ba c5 a6 3e a3 67 d7 3e 4e cf b6 be 7c d6 9c be
       0.32572728 0.42071256 -0.35705036 -0.3063239
000020 e5 c7 e8 3e 7c 78 12 3d 7c 6d e6 bd f0 01 69 bd
       0.45465007 0.035759434 -0.11251351 -0.056886613
000030 b0 2a 1a 3e 75 4e e5 be 27 45 0a 3f 1d e4 66 be
       0.15055346 -0.4478642 0.5401177 -0.22547956
000040 dd 85 fd be 2a a0 a0 3e 11 f5 2d bd cd 9e dc be
       -0.49516192 0.31372195 -0.04247004 -0.43089905
000050 52 6b d8 3e 95 62 85 be 06 31 a2 3c 66 02 34 be
       0.4226938 -0.26051775 0.019798767 -0.1757904
000060 0d 06 a8 3e 79 49 ef 3e dc 09 68 be 85 22 e7 3e
       0.32817116 0.46735743 -0.22660011 0.45143524
000070 91 d7 80 3e 40 6c 1d 3e 58 ca 71 be eb 42 43 3e
       0.25164464 0.15373325 -0.23612344 0.19068496
000080 0c 36 1b bf f2 49 d3 3e 1b 2d 56 3e 5c ef 8a be
       -0.60629344 0.41267353 0.20915644 -0.27135742
000090 20 68 bf 3e cb c2 0d bf 59 c4 6a be 78 69 a7 bd
       0.3738413 -0.55375355 -0.22926463 -0.081744134
0000a0 6a 67 ad 3e 2f e5 b2 3e 5b e1 98 3e 7a ed 8e 3e
       0.3386796 0.34940478 0.29859433 0.27915555
0000b0 8c e4 09 bd 14 1c 5b 3e e7 6d 4c be f6 71 24 be
       -0.033665225 0.2139743 -0.199638 -0.16059098
0000c0 e5 c4 a1 be 30 0b fe 3e 6d 55 82 3e 2e 73 99 3e
       -0.3159553 0.4961791 0.254558 0.29970688
0000d0 48 83 e1 bd 2d 01 17 be 73 d2 39 be a8 12 96 be
       -0.11011368 -0.14746542 -0.18146686 -0.2931111
0000e0 59 aa 93 bc c6 d5 31 be 5c 44 b7 3e aa 62 53 3e
       -0.018025564 -0.17366704 0.35794342 0.20643106
0000f0 87 33 34 3e 98 c8 bd 3e 66 37 af 3e 24 d6 4c 3e
       0.17597781 0.37067103 0.34221953 0.20003563
000100 e3 67 e0 bd 4f 05 0b 3e 98 30 fd bd 70 56 84 3e
       -0.10957315 0.13576244 -0.12362784 0.25847197
000110 b5 d4 24 3e e5 c5 61 3e 11 1c 73 3e 62 6b 5c 3e
       0.16096766 0.22048147 0.23741175 0.21525338
000120 c8 c3 30 bd 21 32 fa 3e 5f f5 ac 3e 6a 00 06 be
       -0.04315546 0.4886637 0.33780953 -0.13086095
000130 d0 7b e0 be 9d 0d ae 3d 82 d5 47 be b2 bf db be
       -0.4384446 0.0849869 -0.1951504 -0.4291969
000140 3c 02 ec 3d f0 ef dd bd 1d c5 cb be 2a 65 9c 3e
       0.11523864 -0.1083678 -0.39798823 0.30545932
000150 2c 6b af 3e b4 6e c3 be 04 26 71 be bb c0 4e be
       0.34261453 -0.38170397 -0.23549658 -0.20190708
000160 40 2d 84 3e 0a 14 fd be 95 d6 d6 3d 7c a2 2a be
       0.25815773 -0.4942935 0.10490147 -0.16663545
000170 14 cd b4 be 25 03 10 be c3 e9 9b be 84 e7 be 3e
       -0.35312712 -0.140637 -0.30451784 0.37286007
000180 71 1f 0b be ca 2c 3b be 60 28 71 3e 00 54 82 bd
       -0.13586213 -0.18278804 0.23550558 -0.06363678
000190 dd 71 46 3e fc db 54 be 73 7b d0 be a8 d2 d3 3d
       0.19379373 -0.20787042 -0.40719184 0.10342914
0001a0 f6 cb 08 be d4 69 c2 bd 60 80 2b be 19 1a 9b be
       -0.13359055 -0.09492841 -0.1674819 -0.30293348
0001b0 56 00 07 3f 11 46 97 bc 09 9a cd be 0f 88 e3 bd
       0.5273489 -0.018466027 -0.40156582 -0.111099355
0001c0 e2 57 1e 3e fc d2 88 be 1c ad fb 3d 3b 93 c2 3e
       0.15463212 -0.26723468 0.12288877 0.38002953
0001d0 7f ee 12 bf 5b dd 00 be 83 b3 6b 3e a8 21 ee be
       -0.57395166 -0.1258444 0.23017697 -0.46510053
0001e0 de d4 38 be f9 e9 da 3e b9 1e 0b 3f b6 25 d3 be
       -0.18049952 0.42756632 0.54343754 -0.4123971
0001f0 3a b8 8b be 44 a5 62 be e2 7e 70 bd 7d f1 9e be
       -0.2728899 -0.22133356 -0.058714755 -0.31043616
000200 66 77 f5 3d 1a 0e 27 3d b6 19 8c 3e 8c 67 55 3d
       0.11985664 0.040784933 0.27363366 0.052100703
000210 0f 63 5d be 84 f7 aa be 48 f0 80 bd 9e 7b 58 be
       -0.21619819 -0.33391964 -0.0629583 -0.21140906
000220 bb 3f 39 be 90 91 72 3d 94 8f bf 3e 9a 1f 95 bd
       -0.18090717 0.05922085 0.3741423 -0.07281418
000230 c3 6c 94 3e af 89 6c be 67 91 3a be 75 3e a5 3d
       0.2898923 -0.23099397 -0.18219529 0.08068553
000240 86 af 34 be 33 b9 c5 bd e3 41 64 3e b7 23 be 3e
       -0.17645082 -0.096544646 0.22290759 0.37136623
000250 4d b4 5f 3d 82 8b b2 3e 8d 8b 34 be e0 9a 20 3c
       0.054615308 0.3487206 -0.1763136 0.00980255
000260 10 50 a3 be 12 84 4c be 00 1a 04 bd 16 02 b6 be
       -0.3189702 -0.19972256 -0.032251358 -0.35548466
000270 5d da b6 3d e0 4a 3b 3d 66 7c 06 3f c2 e4 8c 3d
       0.08928368 0.045725703 0.52533567 0.068795696
000280 60 15 87 3d a5 50 74 3e 06 cd 1b 3e 4e e0 9c be
       0.06595874 0.23858888 0.15214929 -0.3063988
000290 9d 96 c2 be 52 94 a3 be d1 3c 83 3e 48 12 ad 3e
       -0.38005534 -0.31949097 0.25632337 0.3380301
0002a0 2a f5 ca be 7d c5 91 be ee fe 51 be a8 30 78 3e
       -0.3964017 -0.28470984 -0.20507404 0.24237311
0002b0 c8 9b 6c 3e 0b 47 91 3d 1f de 88 3e d9 ad e0 3b
       0.23106301 0.070936285 0.26731965 0.0068566618
0002c0 65 93 64 3e 05 66 b9 bd 39 0f d8 bd ac 59 6b bd
       0.22321852 -0.09052662 -0.105497785 -0.057458565
0002d0 4d 72 d7 3e c0 e6 af be eb 18 9e bd 9e e6 0d 3f
       0.42079392 -0.34355736 -0.077195965 0.5543002
0002e0 7b 98 61 3d de d4 e3 3d a8 7a 23 3b 57 23 c7 3b
       0.055077057 0.111245856 0.0024944935 0.006077211
0002f0 97 09 94 3d 08 bf a1 be 6a fa 5f be 3a 16 ea bd
       0.072283916 -0.31591058 -0.21872869 -0.11430021
000300 3d 73 39 be 4b 4a 69 3e e9 10 86 3e c6 b5 0b bf
       -0.18110366 0.22782247 0.26184776 -0.5457424
000310 2c c2 0d 3f a9 80 0f bc d0 2c 34 be 5c d8 b4 be
       0.5537441 -0.008758702 -0.1759522 -0.3532132
000320 01 fc 6b be 45 96 08 3d ab 96 ab 3d 0b 18 b6 3e
       -0.2304535 0.033346433 0.08378347 0.35565218
000330 de a1 94 3d 67 eb 29 3d 59 05 85 be 54 22 00 3f
       0.07257436 0.041484263 -0.25980642 0.5005238
000340 c7 fc a3 be 4a bd b3 3e 47 cf 77 bd cc 75 4c 3e
       -0.3202879 0.35105354 -0.06050041 0.19966811
000350 53 29 b2 3c 74 60 5f be 03 59 bf bd e1 e2 ae 3e
       0.02174822 -0.21814138 -0.093431495 0.3415747
000360 74 7c a6 3e 93 15 bb 3e 1a eb 81 3d 1c da 8a 3d
       0.32516825 0.36539897 0.0634367 0.06779882
000370 41 e7 a7 be 16 96 81 3e aa f5 be 3e 02 ad 6a be
       -0.3279362 0.2530982 0.37296802 -0.2291756
000380 9d 72 2b 3e bb 40 e9 be 79 e6 8b 3e a2 9b 81 bd
       0.1674294 -0.45557198 0.27324274 -0.06328513
000390 0c 6e a1 bd fe eb c1 bc 76 e1 98 3e 77 92 a4 3e
       -0.07882318 -0.0236721 0.29859513 0.32142994
0003a0 36 93 5d be 4d 14 ad 3e 63 e6 a1 be 69 d2 92 3e
       -0.21638188 0.3380455 -0.31621084 0.28676155
0003b0 62 3b af 3d 8b 40 32 be 07 82 ae be 13 82 7a 3e
       0.08556248 -0.17407434 -0.34083578 0.24463682
0003c0 3e 77 c0 3d ff a2 c3 3e f4 9e 20 be 59 37 21 be
       0.09397744 0.38210294 -0.15685636 -0.1574377
0003d0 dd 60 d7 bd a2 f1 98 bd be f0 cc 3d 2c 2e b5 3e
       -0.10516522 -0.07467963 0.100068554 0.3538679
0003e0 4a 15 dc be ba f8 66 3d 33 3a 57 3e 98 3b 03 bf
       -0.42984992 0.056389548 0.21018295 -0.5126281
0003f0 ce 52 6c be 5b 50 aa 3e 8f d0 be 3e bb 3d 7f 3e
       -0.23078462 0.3326443 0.37268493 0.24925892

net.0.bias f4 [64]
000000 cd d1 94 be ec f6 91 3e 9e 1b 87 be 2e 8d 8e 3e
       -0.29066315 0.285087 -0.26388258 0.27842087
000010 52 0f 73 3e 83 4f c4 3e 68 20 8b be 5c 18 5f 3e
       0.23736313 0.38341913 -0.27173162 0.21786636
000020 6f 1f b4 3e af f7 ce 3e 2e 2a b1 3e db ac 25 bd
       0.35180232 0.40423343 0.34602493 -0.04044805
000030 ca b6 8e 3e 28 5e 3b 3e c9 0a 62 3e 34 8a 91 3e
       0.27873832 0.18297637 0.22074427 0.28425753
000040 e5 7d 9d 3e df 3d 41 be a3 fd 15 be 41 ad 84 be
       0.30760112 -0.18871258 -0.14647536 -0.25913432
000050 d1 de 12 3e c2 52 8c 3e 7b 3f 85 be 11 27 d2 bd
       0.1434281 0.2740689 -0.26024994 -0.102613576
000060 69 7c 20 be a4 77 d2 bd dd f9 05 be 1a 75 6c 3e
       -0.15672459 -0.10276726 -0.13083597 0.23091546
000070 b2 b9 e8 3e 7e 8c bb 3d f1 ad 81 be 99 fb f9 3e
       0.45454174 0.09157656 -0.2532802 0.48824766
000080 ea c8 15 be 41 e5 cb 3e a4 6c 90 3e 54 61 fe bb
       -0.14627424 0.39823344 0.28207886 -0.0077630673
000090 98 1a 50 be d7 bd 33 be 19 41 3f 3e 60 d7 1f be
       -0.20322645 -0.17552887 0.18677177 -0.15609503
0000a0 4f 26 20 3e c6 a4 8b be 62 ea c8 3e 97 1a 93 be
       0.15639614 -0.2727415 0.3924132 -0.28731224
0000b0 c6 e9 b2 be 1e 3c 82 3e af 5e 37 3d c7 ee e8 3e
       -0.3494398 0.2543649 0.04476803 0.45494673
0000c0 f2 8d 1c 3e e7 19 9c 3e 71 24 11 be 5b b9 9a be
       0.15288523 0.30488512 -0.14174058 -0.3021954
0000d0 1e 45 8d 3e 3f 5a e2 3e 45 e7 94 3e a2 c6 0e 3e
       0.27591795 0.44209477 0.29082695 0.1394296
0000e0 27 d8 86 be fa b4 d0 3e e0 52 8d 3d 72 41 7d be
       -0.26336786 0.40763074 0.06900573 -0.24731997
0000f0 2f f1 36 3e e2 80 98 be 2e 8a 03 be 80 0e ff bd
       0.17865442 -0.2978583 -0.1284568 -0.124539375

net.2.weight f4 [32, 64]
000000 6c 7c 23 bd e0 7a cd bb f2 a8 bb bd 20 cf c4 bd
       -0.03991358 -0.0062707514 -0.09163083 -0.096098185
000010 52 f9 86 bd 18 4f 94 3d ca fa cc bd 90 da 9e 3d
       -0.06590523 0.072416484 -0.10008772 0.07756531
000020 14 fc de bd 30 b7 88 3c 60 f0 e8 3b 90 6e 80 3c
       -0.10887924 0.016688913 0.007108733 0.01567772
000030 64 36 4b bd 28 66 83 3c 3e d0 d5 3d b4 67 5b 3d
       -0.049612418 0.016039923 0.1044011 0.053565696
000040 d2 b4 a3 bd 88 30 a1 bd 74 40 fc 3d dc 84 e6 bd
       -0.07993473 -0.07870585 0.12316981 -0.1125581
000050 70 6e c4 bd 08 63 1d 3d 58 0d 44 3d 04 12 a6 bd
       -0.09591377 0.03842452 0.047864288 -0.08108905
000060 e6 d6 ca bd 02 5b 8b 3d 58 f3 dd 3c ea b6 ea bd
       -0.0990427 0.06804468 0.027093574 -0.11460669
000070 56 b9 9e bd 66 8a 8a bd ae 36 b4 bd f8 86 f0 bc
       -0.07750194 -0.06764679 -0.08799492 -0.029361233
000080 36 1a e6 3d e0 ba b3 3c a0 c7 04 3d 20 1b ce bd
       0.11235468 0.021939695 0.03241694 -0.100637674
000090 84 8c 24 3d 28 da 3b bd 84 f1 a0 bd 88 a5 e6 bd
       0.04017307 -0.045862347 -0.078585654 -0.11262041
0000a0 6a 8e ef 3d 38 b9 79 3d 72 7c e5 bd be 67 88 3d
       0.11697085 0.060967654 -0.11205377 0.06660412
0000b0 72 3a c6 3d 60 1f da bc 5c 44 a7 bd a0 55 03 bd
       0.09679116 -0.026626289 -0.081673354 -0.03206408
0000c0 98 b7 9f bc 94 0c e0 3d 44 01 e6 3d 60 2c 2d bc
       -0.019496724 0.10939899 0.1123071 -0.010569662
0000d0 d0 b6 c9 3c 68 60 e3 3d ec 6d 28 bd b4 e3 85 3d
       0.024623305 0.111023724 -0.041120455 0.065375715
0000e0 00 0b 71 3d bc f2 e1 3d 00 50 fe 38 90 9d 43 3c
       0.05884838 0.11032626 0.00012126565 0.011939421
0000f0 98 13 32 bd f4 2c 11 3d a0 d9 56 bd e0 55 b6 bb
       -0.043475717 0.03544326 -0.052453637 -0.0055644363
000100 4a 2f fe bd 10 ab 3c bd f4 82 be 3d 84 ae a9 3d
       -0.124113634 -0.046061575 0.09302321 0.08285239
000110 4a d5 9b bd 26 38 f1 3d 98 77 6f 3d bc 8c d1 bd
       -0.07609041 0.117782876 0.058463663 -0.10231921
000120 66 8d bd 3d b0 37 ef bc 40 ed 85 bd ca 89 90 bd
       0.09255485 -0.029201359 -0.065393925 -0.07057531
000130 44 b3 87 bd d8 1f 4c 3d 40 9f 2f 3c 12 38 8e 3d
       -0.06625989 0.049835056 0.0107191205 0.06944288
000140 5c 6a 6b bd 36 ee fd bd 80 ed 07 bb c8 dd b7 bc
       -0.05747448 -0.12398951 -0.0020740926 -0.02244462
000150 54 18 e3 bd 8c a2 48 bd 52 cd e7 3d dc 2b 43 3d
       -0.110886246 -0.04898314 0.113184586 0.04764925
000160 4c 51 9d 3d 8e b9 f7 bd 9a e6 b7 bd 50 6c b0 bd
       0.07681522 -0.120959386 -0.08979531 -0.08614409
000170 18 6f 3b bd 2e 46 91 3d 64 28 6c 3d 4c c6 2e 3d
       -0.045760244 0.07093464 0.057655707 0.04266958
000180 f0 a0 99 3d b0 c5 d7 bc ec 03 9d bd 60 bb b8 bb
       0.075013995 -0.026339382 -0.07666764 -0.005637571
000190 98 f4 cd bd 12 3f d2 3d 86 5f 93 bd 72 bc a5 3d
       -0.10056418 0.10265936 -0.07195954 0.08092584
0001a0 40 f6 5a 3c 94 8f 8d 3d 4c f1 45 3d 34 33 27 3d
       0.013364375 0.06912151 0.04832582 0.040820315
0001b0 f8 54 e4 3d ee 53 a4 bd 60 83 ca 3d ec f9 cc bd
       0.11149019 -0.08023821 0.09888339 -0.10008606
0001c0 12 9a bf 3d 98 f1 d8 3d a4 a3 2f bd 80 fb 9e bb
       0.093555585 0.10592955 -0.04288067 -0.0048517585
0001d0 38 cf 65 bd f6 2d d7 bd d8 00 2b 3d f0 c1 ee bd
       -0.056105822 -0.10506813 0.04174885 -0.116580844
0001e0 84 64 89 bd b6 d9 b6 3d 30 52 af 3c 94 08 83 bd
       -0.06708625 0.08928244 0.021401495 -0.063981205
0001f0 be bc c6 bd be 8b c4 3d c2 f6 dc bd 5c d5 e5 bd
       -0.097039685 0.09596966 -0.10789253 -0.11222336
000200 0e a6 bf 3d 86 05 b6 3d 98 40 b2 bc e0 b7 a6 bc
       0.09357844 0.08887772 -0.021759316 -0.02035135
000210 54 67 2a 3d 50 52 b0 bd c0 0a 3a 3c 60 57 03 3c
       0.041602448 -0.0860945 0.011355102 0.008016437
000220 18 52 99 3c b0 41 cc bc 52 a2 ef bd 70 cf 15 3c
       0.018715903 -0.024933666 -0.11700882 0.009143695
000230 40 0c 8c bd b8 ac b9 3c 90 37 65 3d 22 73 b1 bd
       -0.06838274 0.022665367 0.05596119 -0.08664538
000240 4a 07 f3 bd 00 a7 34 bd 58 83 1d bd 50 ee bc 3c
       -0.11866625 -0.044104576 -0.038455337 0.023062855
000250 36 0a f4 bd ec 7b 5e bd 4c d2 77 bd 20 e5 fe bb
       -0.1191601 -0.0543174 -0.06050329 -0.0077787787
000260 40 e1 d6 bb be fa f5 bd ce 5e f9 3d 98 18 ac bc
       -0.0065576136 -0.12010716 0.12176286 -0.021007821
000270 18 dc ca bc 5c 2f 51 3d 0e 4e cb bd aa 1b 86 3d
       -0.024763152 0.051070556 -0.09926997 0.06548245
000280 92 7a ce 3d 24 8f d9 bd e6 ec f2 bd f0 34 8d bd
       0.10081972 -0.10623005 -0.11861591 -0.06894863
000290 3a 94 f4 bd dc c2 42 bd 00 0c 84 3c f4 ed 4c 3d
       -0.119423345 -0.047549114 0.016119003 0.050031617
0002a0 5c 45 22 bd 00 08 bc bc 30 e3 fd 3d e0 c4 c7 bc
       -0.039616928 -0.022953033 0.12396848 -0.02438587
0002b0 fc d4 10 bd 0a 37 90 bd 76 c9 d5 bd 80 57 01 bc
       -0.035359368 -0.07041748 -0.10438816 -0.007894397
0002c0 12 63 b2 3d 40 8d 24 3d 98 1e 3a bd 6e 7a cc 3d
       0.087103024 0.04017377 -0.045439333 0.09984289
0002d0 e0 a9 78 bd 50 7d 34 bd a0 59 0c bd 28 e2 c3 3c
       -0.06070888 -0.04406482 -0.03426516 0.02391155
0002e0 90 e2 a0 bd 20 c4 83 bb e8 7d 82 3d 70 a9 bb 3c
       -0.07855713 -0.0040211827 0.06371671 0.022907943
0002f0 dc 2e f4 bd a6 01 d8 bd b2 71 9e 3d c6 ab ff bd
       -0.11923 -0.105471894 0.077365294 -0.12483935
000300 96 5e 1d be 2d cc d6 3e b5 84 57 3e 2a 8b ae 3e
       -0.15368113 0.4195265 0.21046717 0.3409055
000310 4e 81 e0 3d 1d d0 aa 3e 00 d1 b4 be 10 f3 fb bc
       0.10962163 0.33361903 -0.35315704 -0.03075555
000320 a6 9c 24 3e 22 33 a2 3e 16 f8 20 bd b7 7e 82 3d
       0.16075382 0.31679636 -0.039299093 0.06371825
000330 1c 09 12 3a fe 9f 6d 3e b3 26 7b 3e b1 86 97 3d
       0.00055708154 0.23205563 0.24526481 0.07398737
000340 b8 03 b4 3e d8 f1 13 3d d4 7d 4d 3e 27 6b 05 3f
       0.35159087 0.036119312 0.20067531 0.52116627
000350 a1 d4 d1 b8 b2 de 4e 3e b6 78 d6 3d 52 24 d0 bd
       -0.00010005502 0.20202139 0.104722425 -0.101631775
000360 f6 a4 93 bd 00 7a 51 3a c3 5c 98 3d 40 a7 62 3e
       -0.07209198 0.00079908967 0.07439568 0.22134113
000370 75 ea 70 3e 28 e3 f7 3d c3 f2 f4 be 78 4e ea 3d
       0.23526938 0.121038735 -0.47841462 0.11440748
000380 30 84 1b be 7d ce cd 3e bc 44 1c 3e 2a 3b 0e 3d
       -0.15187144 0.401966 0.15260595 0.034724392
000390 a0 03 c0 bd b3 c0 49 be fe 85 4e 3e 4d b8 a8 3d
       -0.093756914 -0.19702415 0.20168301 0.082382776
0003a0 6e 4d b5 3d df 3b 7e 3e f1 9b 6b 3c 03 29 f1 be
       0.08852659 0.24827527 0.014380441 -0.47101602
0003b0 00 31 ea bc b3 46 71 3e 4e a2 5b 3e 18 ff 83 3e
       -0.028587818 0.23562126 0.21448633 0.2578056
0003c0 f8 ac c7 3d 91 cb 00 3d 4d 05 92 3e 00 16 61 3a
       0.09749788 0.031444136 0.2851967 0.0008586347
0003d0 9b 9f 73 3e 1a 78 97 3e 54 fb f8 3d 4f f4 ac bc
       0.23791353 0.29583818 0.12157312 -0.02111259
0003e0 2a b6 49 be c0 e4 42 3e a0 bd e6 3d 46 81 72 3d
       -0.19698396 0.19032574 0.11266637 0.059205316
0003f0 93 63 6e bd 90 53 05 3c af 2b f0 bc 58 23 01 bd
       -0.05820043 0.008137599 -0.029317705 -0.031527847

net.2.bias f4 [32]
000000 6e d8 ce bd 4c 07 83 bd 08 df c3 bd 44 e7 4f 3e
       -0.100998744 -0.06397876 -0.09564024 0.20303065
000010 72 ed 20 be 3b 30 d7 bd 0a ae c3 bd 88 9c 3d bd
       -0.15715578 -0.10507246 -0.0955468 -0.046291858
000020 77 d3 c0 3d 24 74 19 3d 34 20 58 bd 25 1e 58 3d
       0.09415334 0.037464276 -0.052765086 0.052763123
000030 ca b2 22 bd 15 ac 92 3d ff 25 e4 bd 22 84 1f 3e
       -0.039721288 0.07161728 -0.1114006 0.15577748
000040 c8 a6 c4 bd 57 53 0f 3e e6 d3 9b bd b0 5e c8 bc
       -0.096021235 0.13996635 -0.07608776 -0.024459213
000050 00 73 8b 3d 3d 70 af 3d f4 06 2c 3d 81 3e 49 bd
       0.06809044 0.0856633 0.04199882 -0.049131874
000060 3e 3b 98 3d da f8 92 bd de 03 3a 3d 7e ee bb bd
       0.074331746 -0.07176371 0.045413844 -0.09176348
000070 dd 22 c1 3d b1 9b 36 3e fa 6f 76 bd 01 68 2e 3d
       0.09430478 0.17832829 -0.060165383 0.042579655

net.4.weight f4 [16, 32]
000000 6d e2 01 be f0 79 51 bc f3 2f 09 be b7 2f c5 3e
       -0.12684031 -0.01278542 -0.13397197 0.38512966
000010 83 f0 ca bd d8 30 20 be 19 3d ca 3d a5 3f 03 3e
       -0.09909155 -0.15643632 0.09874935 0.12817247
000020 7f b9 24 be ab 4d cf 3d 0c cd c8 3d 54 fc 78 be
       -0.16086386 0.10122236 0.098047346 -0.24315006
000030 00 41 d0 bd f7 ec d5 bd 64 86 36 3d 90 8a d3 3d
       -0.10168648 -0.10445588 0.04456176 0.10329163
000040 2e d8 c8 3d 3f ee 2e 3d 8a 22 7f 3d 20 5e d4 bb
       0.09806858 0.042707678 0.0622888 -0.006480947
000050 0b 76 3d be 05 4d 03 be 2b b9 c4 bd 30 f0 ed bd
       -0.18502061 -0.1282235 -0.096056305 -0.11618078
000060 72 83 38 be 20 3a 22 be 94 a0 df 3d 85 0a ce bd
       -0.18018892 -0.15842485 0.109193 -0.100606
000070 37 5e 7f 3d b2 a1 aa 3e 1d bb 90 be 39 4c 25 3e
       0.06234571 0.3332649 -0.28267756 0.16142358
000080 fd 39 1c 3e 18 58 90 3d 90 49 44 3d 52 c8 00 bc
       0.15256496 0.070480525 0.047921717 -0.00786026
000090 ba 9e b3 3d 94 8f 08 be fa ef db 3d f7 c0 01 3e
       0.08770509 -0.1333602 0.10739131 0.12671266
0000a0 fa 49 c0 3d 24 83 24 be 5e 6a d6 bc 2f 54 52 3c
       0.0938911 -0.16065651 -0.026173767 0.012837454
0000b0 98 eb 39 3d a4 01 38 be a3 d7 fa bd c1 25 ff 3d
       0.045390695 -0.17969376 -0.12248161 0.12458373
0000c0 d6 66 e7 3d 7f 62 e3 3c 72 fc cc 3d f4 dd 0d bd
       0.11298911 0.027756928 0.100090876 -0.0346355
0000d0 50 d1 2b be 86 7a 5c bd ee 5e 6f 3c 8e 73 a6 3d
       -0.16779065 -0.053827785 0.014610035 0.08127509
0000e0 94 6c 30 be ba 01 ca 3d f7 f1 1e 3e 2d ff 18 3e
       -0.1722892 0.098636106 0.1552199 0.14941092
0000f0 0d 3b e2 bd 93 98 bb 3d 42 0d ad 3d 7b 32 aa 3c
       -0.11046419 0.091599606 0.08449794 0.020776024
000100 84 0f 05 bd 08 5d f5 3c 81 2f 12 be 98 f6 75 3a
       -0.0324855 0.029951587 -0.14275934 0.00093827536
000110 cf 18 9c bd e4 8a c0 bd f0 da 2b 3c 42 6b c4 3d
       -0.07621919 -0.09401491 0.0104892105 0.0959077
000120 ce 23 ec bd 60 9f 9e bd 14 ee 0f 3e 90 31 3b be
       -0.11530267 -0.07745242 0.14055663 -0.18280625
000130 79 9d 34 be e9 f5 91 3d 10 a9 06 be d7 ce 20 3d
       -0.17638196 0.07126982 -0.1315043 0.039259758
000140 08 90 11 be 17 31 00 be ae f2 fe 3d 94 49 24 3d
       -0.142151 -0.12518726 0.12448631 0.040109232
000150 bc b3 02 bd 7b 9d 58 be 82 02 ea bc c0 fb 4f 3d
       -0.03190969 -0.21153824 -0.028565649 0.050777197
000160 d4 d8 1b be 2a 94 d2 3d 42 a9 e9 bd 24 21 3d 3d
       -0.15219432 0.10282166 -0.114092365 0.046174183
000170 76 70 1c be ff 7d 7b 3d 08 b4 14 3d 88 5c 84 bd
       -0.15277275 0.061399456 0.036304504 -0.064629614
000180 e0 4e f4 bc f2 ec c5 3d b4 d1 fa bd 98 72 82 3d
       -0.029822767 0.09664334 -0.12247029 0.06369513
000190 d7 5d ef bd 6c 13 83 bc 49 7e 15 be a2 66 e7 3d
       -0.116878204 -0.016000472 -0.14598955 0.112988725
0001a0 01 72 cb 3d 45 03 49 3d 73 02 6a be de 46 54 be
       0.09933854 0.049075384 -0.22852497 -0.20730159
0001b0 66 5c 35 bd 8c ad 39 3e 54 64 66 3d e1 15 a6 bd
       -0.04427757 0.18132609 0.056248024 -0.08109642
0001c0 24 e7 9b bd 86 72 15 3e 72 71 5a be 76 34 1b be
       -0.07612446 0.14594468 -0.21332338 -0.15156731
0001d0 6f 08 77 be e9 db 6c 3c d3 dc a5 bd 39 d0 ca bd
       -0.24124311 0.014456728 -0.080987595 -0.099029966
0001e0 d7 d5 b6 bd 43 1b 00 3e 59 13 05 be 83 95 eb 3d
       -0.089275055 0.125104 -0.12995662 0.115031265
0001f0 e2 8e df 3d 27 3f 8b 3e 4f ee 80 be c0 54 60 3d
       0.109159246 0.2719662 -0.25181815 0.054768324
000200 4f 48 98 bd 58 e9 8e 3c 2e 64 9a 3d 29 fb a1 be
       -0.07435667 0.017445251 0.07538639 -0.31636932
000210 f8 96 46 bb 32 db eb 3d bf 74 df bd c2 37 d0 3d
       -0.0030302387 0.115164176 -0.109109394 0.10166885
000220 a0 0f b9 3d df 71 86 3e cd 0e cc 3c 36 05 65 3e
       0.09036183 0.26258752 0.024909401 0.22365269
000230 e2 63 45 3d 84 9f cd 3d e2 e9 00 3c 0f ba 30 3e
       0.04819096 0.10040191 0.007868262 0.17258476
000240 44 b6 a9 bd c1 b6 77 3e 1d 0b 2d 3e 3f db 9c bd
       -0.082867175 0.24190809 0.1689877 -0.076590054
000250 ab 00 1b 3e 61 e1 56 3e 10 02 38 3e 2c 31 15 be
       0.15136974 0.20984413 0.17969537 -0.14569539
000260 34 ba 9e bc cb da db bd 47 f1 26 3e db fd 07 3d
       -0.019375898 -0.10735091 0.16302978 0.03320108
000270 bd 82 83 3d 12 67 f6 3c ae 42 f8 3d cf 00 38 3e
       0.06421421 0.030078445 0.12122093 0.17969058
000280 68 0b a1 3c 0b c0 10 3e 08 c6 a9 bd 30 f1 43 3c
       0.01965876 0.14135759 -0.082897246 0.011959359
000290 de cc da bd 7b 30 0f be 00 fc 49 3b 99 0a 0d 3e
       -0.106836066 -0.13983338 0.003082037 0.13773574
0002a0 ce 07 f1 3d 8c f5 01 bd 41 d4 02 3e 70 b5 94 3c
       0.11769067 -0.031728312 0.12776281 0.018152922
0002b0 38 6a 3f bd 3a b3 ad bd 7c db 2e 3d 90 3b 34 bd
       -0.046732157 -0.084814504 0.042689785 -0.044002116
0002c0 e2 28 ef bd 20 72 0f bd e3 ef 04 3e d1 12 22 be
       -0.1167772 -0.035020947 0.12982135 -0.1582749
0002d0 ea 8e 80 bd d8 bc 02 be 74 de bf bd 9c f0 2d 3d
       -0.06277259 -0.1276735 -0.093686014 0.04246579
0002e0 35 b3 19 3e d3 05 d2 bd 64 1e 12 bd 40 17 86 3b
       0.15009768 -0.10255017 -0.035673514 0.004092127
0002f0 14 16 0f bd eb 5a 07 3e d8 f6 ef bc 80 28 0a 3c
       -0.034933165 0.13218276 -0.029292509 0.0084325075
000300 30 3c 13 bd 0a d3 11 be e0 0b 7f bd 15 87 8e be
       -0.03594607 -0.14240661 -0.062267184 -0.27837434
000310 c2 d3 de 3d 0c e5 7d 3e d1 28 18 3e 02 e3 9e 3d
       0.10880233 0.24794406 0.1485932 0.07758142
000320 97 b2 6c 3e 42 85 3b 3e a7 ea 8e 3e f5 58 48 3e
       0.23115002 0.18312553 0.279134 0.19565184
000330 cf 2f 5d 3e b2 9c a5 3d 1d 8f 69 3c 83 7c 54 3e
       0.21600269 0.08086528 0.014255312 0.20750622
000340 af 5d 30 be 37 35 64 3e 19 56 3a 3e 8d dd 03 3e
       -0.17223237 0.22285925 0.18196906 0.12877484
000350 08 d2 ce 3d 6c 4d 4b 3e 70 03 63 3e 18 ad 09 be
       0.10098654 0.19853753 0.2216928 -0.13444936
000360 a7 9b 8c 3e 00 48 f5 3a 28 76 30 3e 35 4f de bd
       0.27462503 0.0018713474 0.17232573 -0.10854951
000370 39 e2 40 3e cf 99 3b be 39 a3 8c 3e 0d 9b 3b bd
       0.18836297 -0.18320392 0.2746828 -0.045802165
000380 62 7f de bd 2b 6a 19 be b8 06 cc bc 66 4a aa 3e
       -0.1086414 -0.14981906 -0.024905547 0.33259887
000390 2f 7f 58 bd 7a dd 45 be f0 a9 00 be 67 56 d4 bd
       -0.052855667 -0.19322768 -0.12564826 -0.103680424
0003a0 31 6d 01 be 4c f6 3e bc db 85 2f be f8 d7 89 be
       -0.1263931 -0.011655401 -0.17140906 -0.26922584
0003b0 f4 74 42 be e4 9b 34 3e cf b0 00 3e e8 48 00 3e
       -0.18989927 0.17637593 0.12567447 0.12527812
0003c0 17 e2 1c 3e 8e 6f fc 3d f4 6e f3 bd a1 86 2f be
       0.15320621 0.12325965 -0.11886397 -0.171412
0003d0 3f af 16 be 13 52 ba 3c 04 4d d4 3b aa 16 16 be
       -0.14715289 0.022744214 0.0064789075 -0.14657083
0003e0 2b 4a 26 3d b4 91 22 be 91 0f fe bd 78 4c 8a 3d
       0.040598076 -0.15875894 -0.12405313 0.067528665
0003f0 9f ac 59 bc 09 25 9b 3e a1 2d 6c be b2 b8 f4 3d
       -0.013285785 0.30301693 -0.23064281 0.1194929

net.4.bias f4 [16]
000000 8e 8f 8c 3d 80 47 31 be 15 1f 1f be f1 7a 0a 3e
       0.068633184 -0.17312431 -0.155392 0.13523461
000010 5d 27 e9 bd dd e8 06 be d5 72 1c 3e 34 2b 0c 3e
       -0.11384461 -0.13174768 0.1527818 0.13688356
000020 7f 3c 38 bd c3 42 09 3e 96 71 e2 bc 02 32 27 bd
       -0.04497957 0.13404374 -0.027642053 -0.040819176
000030 42 e4 09 be c1 be 0a be f6 43 72 bb 07 6b 46 be
       -0.1346598 -0.1354933 -0.0036966777 -0.19376765

net.6.weight f4 [1, 16]
000000 08 15 98 3e 3f ad 6d be e3 d5 31 bc d7 01 07 3f
       0.29703546 -0.2321062 -0.010854217 0.5273718
000010 44 a0 9d be 52 5f 74 be 84 aa 81 be 02 96 bc 3e
       -0.30786335 -0.23864487 -0.25325406 0.36833197
000020 91 b3 3f be f3 b6 f7 3e f7 5e c7 bc 23 ed 5a be
       -0.18720843 0.48381767 -0.024337275 -0.21379523
000030 10 f1 f3 bc b5 81 a7 be dd dd ec 3e 90 6d c5 bd
       -0.029778033 -0.32716146 0.46263018 -0.09640038
